…
e=0.1, val=True, verbose=True, vid_stride=1, visualize=False, warmup_bias_lr=0.1, warmup_epochs=3.0, warmup_momentum=0.8, weight_decay=0.0005, workers=8, workspace=None
122.0s 35 Downloading https://ultralytics.com/assets/Arial.ttf to '/root/.config/Ultralytics/Arial.ttf'...
122.8s 36 0%|          | 0.00/755k [00:00<?, ?B/s]100%|â–ˆâ–ˆâ–ˆâ–ˆâ–ˆâ–ˆâ–ˆâ–ˆâ–ˆâ–ˆ| 755k/755k [00:00<00:00, 16.1MB/s]
127.1s 37 Overriding model.yaml nc=80 with nc=21
127.1s 38 
127.1s 39 from  n    params  module                                       arguments
127.1s 40 0                  -1  1      1392  ultralytics.nn.modules.conv.Conv             [3, 48, 3, 2]
127.1s 41 1                  -1  1     41664  ultralytics.nn.modules.conv.Conv             [48, 96, 3, 2]
127.1s 42 2                  -1  2    111360  ultralytics.nn.modules.block.C2f             [96, 96, 2, True]
127.1s 43 3                  -1  1    166272  ultralytics.nn.modules.conv.Conv             [96, 192, 3, 2]
127.2s 44 4                  -1  4    813312  ultralytics.nn.modules.block.C2f             [192, 192, 4, True]
127.2s 45 5                  -1  1    664320  ultralytics.nn.modules.conv.Conv             [192, 384, 3, 2]
127.2s 46 6                  -1  4   3248640  ultralytics.nn.modules.block.C2f             [384, 384, 4, True]
127.2s 47 7                  -1  1   1991808  ultralytics.nn.modules.conv.Conv             [384, 576, 3, 2]
127.2s 48 8                  -1  2   3985920  ultralytics.nn.modules.block.C2f             [576, 576, 2, True]
127.2s 49 9                  -1  1    831168  ultralytics.nn.modules.block.SPPF            [576, 576, 5]
127.2s 50 10                  -1  1         0  torch.nn.modules.upsampling.Upsample         [None, 2, 'nearest']
127.2s 51 11             [-1, 6]  1         0  ultralytics.nn.modules.conv.Concat           [1]
127.3s 52 12                  -1  2   1993728  ultralytics.nn.modules.block.C2f             [960, 384, 2]
127.3s 53 13                  -1  1         0  torch.nn.modules.upsampling.Upsample         [None, 2, 'nearest']
127.3s 54 14             [-1, 4]  1         0  ultralytics.nn.modules.conv.Concat           [1]
127.3s 55 15                  -1  2    517632  ultralytics.nn.modules.block.C2f             [576, 192, 2]
127.3s 56 16                  -1  1    332160  ultralytics.nn.modules.conv.Conv             [192, 192, 3, 2]
127.3s 57 17            [-1, 12]  1         0  ultralytics.nn.modules.conv.Concat           [1]
127.3s 58 18                  -1  2   1846272  ultralytics.nn.modules.block.C2f             [576, 384, 2]
127.3s 59 19                  -1  1   1327872  ultralytics.nn.modules.conv.Conv             [384, 384, 3, 2]
127.3s 60 20             [-1, 9]  1         0  ultralytics.nn.modules.conv.Concat           [1]
127.3s 61 21                  -1  2   4207104  ultralytics.nn.modules.block.C2f             [960, 576, 2]
127.4s 62 22        [15, 18, 21]  1   3787855  ultralytics.nn.modules.head.Detect           [21, [192, 384, 576]]
128.0s 63 Model summary: 169 layers, 25,868,479 parameters, 25,868,463 gradients, 79.1 GFLOPs
128.0s 64 
128.1s 65 Transferred 469/475 items from pretrained weights
128.3s 66 Freezing layer 'model.22.dfl.conv.weight'
128.3s 67 [34m[1mAMP: [0mrunning Automatic Mixed Precision (AMP) checks...
128.3s 68 Downloading https://github.com/ultralytics/assets/releases/download/v8.3.0/yolo11n.pt to 'yolo11n.pt'...
…
